model_parameters_ten_epoch.npz (npz, 63290 bytes, 2 tensors)

W f8 [10, 784]
0	0x3f7cbc9af807665b	0.007015805575485946
1	0x3f8f5ce757bcfdd3	0.015313918461855735
2	0xbf8d998c5cd42411	-0.01445302637377391
3	0xbf78e2c5b4e13061	-0.006075641909841862
4	0x3f862ab8a954c938	0.01082367197759436
5	0x3f79eea07e862a21	0.006331087999920133
6	0xbf8dd75468119dcd	-0.01457086508362595
7	0xbf66f7a45234751f	-0.002803631725000102
8	0x3f726a5c5cc0970c	0.004495964803970198
9	0xbf85f5b951bd3376	-0.010722587401369426
10	0xbf81b3fa849473f3	-0.008644063159005433
11	0x3f915c9b777c584c	0.016954831283406954
12	0xbf65697b0b50f81f	-0.002613773651801501
13	0xbf15508f203493a8	-8.130906649179862e-05
14	0x3f605eed0244e9c8	0.001998389156282008
15	0xbf5934e75390d649	-0.0015384921118885167
16	0x3f953a07234106e1	0.020729171301588138
17	0xbf81870cf2b75c4e	-0.008558369786369504
18	0x3f8e18604dffae23	0.014694931392987226
19	0xbf909441c891eaa7	-0.01619055544549988
20	0xbf7339c00bd8a9b7	-0.004693746739159391
21	0x3f96d79529c0c3b7	0.02230675761547093
22	0xbf5d918a44c82564	-0.001804718997961829
23	0xbf6a4bc6deadfa0e	-0.00320996133581209
24	0x3f683cd0f1ef2f3a	0.0029586869199870443
25	0xbf82e9d65943fe98	-0.009235071753664045
26	0xbf81ccfde72f5de0	-0.008691772096354577
27	0x3f69713cf2e291d1	0.003105753937307145
28	0x3f8f17be5938b48c	0.015182005975555656
29	0xbf702a62e6179f48	-0.0039466727480215805
30	0xbf39ac4f6818ecc3	-0.0003917402137607157
31	0x3f3722e4fb476dd7	0.0003530320202835535
32	0xbf6e5cb6f8ba7ec9	-0.00370631920470985
33	0x3f818b857474674f	0.008566897026458213
34	0x3f654a3c677142d1	0.0025988750235586906
35	0x3f4dd1626a16463b	0.0009099703349184149
36	0xbf8789516777cca5	-0.011492382021037814
37	0xbf7db71435fa32a3	-0.007254675816181918
38	0x3f78e03eb709cf3c	0.0060732316784315975
39	0xbf8600e5b693dd9b	-0.010743898996664216
40	0x3f7879536dc702c1	0.00597508038885114
41	0x3f66ac6947b7af4a	0.002767758965765231
42	0xbf80de4663a1a12c	-0.00823645583678053
43	0x3f85c6cea6e6e483	0.01063310095638515
44	0xbf4b4367cbdbf6b6	-0.0008320099657052802
45	0xbf5378587a826f25	-0.001188360600315749
46	0x3f7481e08560069b	0.005006672892706422
47	0x3f5cb6e2702c6dad	0.0017525874433833397
48	0xbf88bea6a7957e10	-0.012082387913948472
49	0xbf6a713872ba482a	-0.003227815866758928
50	0x3f76d7965d6b0e21	0.005576693880985612
51	0x3f97d3338d6e1d0d	0.023266606814584857
52	0xbf6c204555fb333b	-0.003433356687173731
53	0xbf8a03ab0fe2f6e1	-0.01270230905754083
54	0xbf4e10cbcdff12be	-0.0009175295963293679
55	0x3f8a5f288885daf3	0.012876812616679589
56	0x3f922aa35d073731	0.017740776589383948
57	0x3f71fe91eb7a9a45	0.004393167495129695
58	0x3f931e7b333f4cc8	0.018670964243779037
59	0xbf664188069b614a	-0.0027167946580954104
60	0x3f914324783c5965	0.016857690657240982
61	0x3f99c70805428de4	0.025173306771319917
62	0x3f778f1a22c02e07	0.005751707165483128
63	0x3f31d111fe2f3ba5	0.0002718609741209583
64	0x3f6c5addc6f39158	0.0034612971863784807
65	0x3f7d4ccbf22c09e3	0.007153317131044254
66	0xbf949224ac2d266f	-0.020088742264567857
67	0xbf40b8a40dfe93f6	-0.0005102921531842098
68	0x3f71a7002f41643a	0.0043096549234969365
69	0x3f8f2263bc71939c	0.01520231169542701
70	0xbf822b8adeec4c57	-0.00887211315924767
71	0xbf93709587fb56dd	-0.01898416178195005
72	0x3f687cccb503d341	0.002989196604284678
73	0xbf7561d7c22f811c	-0.005220263296877439
74	0x3f2cc81522a32f29	0.00021958597182558076
75	0xbf6199c8cad6876a	-0.002148525402575642
76	0x3f8d4ad6233b1404	0.014302895498426345
77	0x3f6226b0bb586c0e	0.002215714625675164
78	0xbf7ae007ff51ce41	-0.006561309089295587
79	0xbf6111d9b8035cb7	-0.002083707077058596
80	0x3f81eec809489f23	0.008756220610919357
81	0x3f5b6dd8e03fb10a	0.0016741388253605515
82	0xbf5d79525fbdd344	-0.0017989448960779733
83	0x3f82389730034da6	0.00889700045846704
84	0xbf54427a5648e4e5	-0.0012365526864768714
85	0x3f3c4c85bc38ed98	0.00043180718441578883
86	0xbf738ed39d558f9b	-0.004774881953696931
87	0x3f74a0de2318dc9b	0.005036227915801518
88	0xbf809b0d7deb58a2	-0.008108239560368272
89	0xbf930da094c73b53	-0.018606671410278008
90	0x3f7d672a3f8d3d35	0.007178463966581551
91	0xbf6fca8736b70248	-0.0038807526486553147
92	0xbf85fea33e7fdfff	-0.010739589066346865
93	0x3f764b55b70bc538	0.005442938637075394
94	0xbef7e862b0ef1d40	-2.2800212771815044e-05
95	0xbf7139435b9e3d0c	-0.004205000988704254
96	0xbf8770c1934ca5e4	-0.011445534045907153
97	0xbf6de3790d4b29d8	-0.003648506574198889
98	0x3f96fbb4feffc1ac	0.022444561065584942
99	0xbf7bd938e8f103a0	-0.006798956207661272
100	0xbf77e20e191185a1	-0.005830817289365881
101	0xbf75e83506c93bff	-0.005348403105542409
102	0xbf865ba2d319644f	-0.010916969363437582
103	0xbf5730b95c5861cc	-0.0014154253161732131
104	0xbf7b658f8e8f1cd5	-0.006688652771976685
105	0x3f666b4ae91090c7	0.0027367079824377224
106	0x3f8bcec7e65d869f	0.013577996938411828
107	0xbf88f4eed6080897	-0.012185922533721345
108	0x3f8405a1e13577ba	0.009776367841080592
109	0xbf6efcf3b0927f83	-0.003782726246370717
110	0x3f7d2666f8b98ee5	0.007116701348056619
111	0x3f62a5113bc85fe4	0.0022759758560475397
112	0xbf848209d55a0251	-0.010013653586839729
113	0x3f622d3e4eb5d361	0.002218839353810884
114	0xbf720a97d297144c	-0.004404633576489191
115	0x3f846783eb7b5ac1	0.009963064788661826
116	0x3f68e1c9a14e5343	0.0030373514259260117
117	0xbf9584f1ef7950c0	-0.02101495765812511
118	0x3f6c4789134d3281	0.00345207951105514
119	0x3f890426a21e1800	0.01221494848483573
120	0x3f8a67bee8eedfb3	0.012893191798738579
121	0x3f8548b9165f30a3	0.01039261436007905
122	0xbf6dc7dbe0af6578	-0.0036353392110696735
123	0xbf71a3f20682ea99	-0.0043067411535796735
124	0xbf8adb900ed92623	-0.0131140951663325
125	0x3f6a09e824e9724c	0.0031785520616678716
126	0x3f57c3d019316a24	0.0014504940234220188
127	0x3f8b02ea22b31c78	0.013189152893018127
128	0xbf756fa889a0180f	-0.005233438825603911
129	0xbf6b21b77e72ba5c	-0.0033119758478144367
130	0xbf4e11478517152e	-0.0009175872057133655
131	0xbf7a11774d1735c8	-0.006364313144741236
132	0xbf7093e76d396d1b	-0.0040473022559937245
133	0x3f8e7546b00b6f35	0.014872123954254949
134	0xbf6bf113d9335298	-0.0034108531632262677
135	0x3f7552181b891c4d	0.005205244226608019
136	0xbf72b07f1fa57d68	-0.004562851502071787
137	0x3f90477dcadec828	0.01589771795961084
138	0xbf911dfe2e5129fe	-0.01671597631165333
139	0xbf785a578e8662e7	-0.00594553186274347
140	0x3f3fe57c5de7c3c8	0.00048670088099727867
141	0x3f2ac7e1918c0f76	0.00020432117960222555
142	0x3f792a32993e6595	0.006143758440793863
143	0xbf82e9aed3004caa	-0.00923477727341145
144	0xbf8ac1793f888ece	-0.013064334155451187
145	0x3f6f0129d606436e	0.0037847344503422675
146	0x3f7266ada121ef3d	0.004492452850282378
147	0xbf75cc564e40fbde	-0.005321824199255835
148	0xbf8d1db9cb792471	-0.014216853639611867
149	0x3f7d49f515aa1544	0.007150609361479102
150	0xbf85a9beec9d5011	-0.010577670665647106
151	0xbf359cdd2edf16ef	-0.00032978439309903814
152	0x3f92a2d01d94f71f	0.01819920712045253
153	0x3f76ecdd9b4e4cd1	0.005596986437825539
154	0x3f3720cedddde40f	0.00035290766196954896
155	0xbf55a4025cac0a15	-0.0013208411280066824
156	0xbf89b800e3d952d3	-0.012557990029713839
157	0x3f6d89d23a0af037	0.0036057573309715945
158	0x3f899566e5479e1c	0.012491992828429103
159	0x3f5a52abb65aec38	0.00160662430555082
160	0xbf8bf2a344b6d51f	-0.013646388563624044
161	0x3f91386eaeb6bb17	0.0168168348442875
162	0x3f90524b7c33b0d8	0.015938929992373868
163	0xbf277f43fe94b2da	-0.00017926888475851868
164	0xbf9374e868ed9971	-0.019000655559830052
165	0xbf783d271276899e	-0.005917694688294976
166	0xbf84030a5b014b8c	-0.009771424200300215
167	0xbf973608bd235af1	-0.022667061370920064
168	0xbf7d76707c1b4a45	-0.007193030732838117
169	0xbf4f11a0e074fe19	-0.0009481463938882411
170	0x3f7f306f8549cb80	0.00761455118901011
171	0xbf681a36e0754950	-0.0029421874820993246
172	0x3f765fa094737cd7	0.005462291016754515
173	0xbf673dba97b1ddc5	-0.0028370518098730113
174	0xbf50403961e5617b	-0.0009918747305928944
175	0x3f88448ee92c91ac	0.011849514475735422
176	0x3f413b52e7749d50	0.0005258707814492034
177	0xbf55c1e1f3c58975	-0.001327963501431909
178	0x3f7cd2c548ba5c38	0.0070369440469653585
179	0x3f878cf98521fd96	0.011499356627836115
180	0xbf8fb2d16bbe7333	-0.015477787113746899
181	0xbf6e442419597cb0	-0.0036946015414255004
182	0xbf6a6c0fd72a5c30	-0.0032253560432980097
183	0x3f930082063cc413	0.018556625014017735
184	0xbf508ec75517e217	-0.0010106035809923691
185	0x3f598efbfe028b63	0.0015599690305314266
186	0xbf751f5300a46e43	-0.00515682623725017
187	0x3f66985df5f8ed9a	0.002758201138730332
188	0x3f91d9c729bb4e71	0.017432319566820845
189	0xbf7d3175d575f43c	-0.007127247131731681
190	0xbf59627a857cf827	-0.0015493580339831588
191	0x3f92b797dcdc5472	0.018278477530732258
192	0x3f69d0aee23217e8	0.0031512656874523766
193	0xbf812e451ec66a9a	-0.008389034272842811
194	0xbf7d2b9df384f736	-0.007121674534855951
195	0x3f641464ba3154e8	0.002451130612409192
196	0xbf85119fa411006d	-0.010287520594033784
197	0xbf739765d369a344	-0.004783056027556413
198	0x3f8ab27faaed500c	0.01303577175500694
199	0xbf7f3f9b3d0bb437	-0.007629019165261978
200	0x3f73f35d6190f73e	0.004870762605660604
201	0x3f6f65ad96f86c72	0.0038326635765435985
202	0x3f4cbbc7ad5b9d78	0.0008768773065783017
203	0x3f90a865d52cc703	0.016267386566318553
204	0xbf8eb00e83557d1b	-0.014984238989824086
205	0x3f363db8514c3933	0.000339372157484602
206	0x3f5882b483069732	0.0014960062800155158
207	0xbf9132a18a03b4dc	-0.016794704483733422
208	0xbf83f8bb86d92dfc	-0.009751763394112871
209	0x3f75807d69f9edee	0.005249490640945249
210	0x3f77ff2644c29bc5	0.005858563887307382
211	0x3f8001e318b9306b	0.007816099349973812
212	0x3f891d0151d9ef5f	0.012262354193118772
213	0xbf6d7833e4fbd3d0	-0.003597356182462687
214	0x3f5cbbabccb22403	0.0017537286501314593
215	0x3f8be250ef71e385	0.01361525755622651
216	0xbf7274edec6e3b1d	-0.004506043805021756
217	0x3f9030fc7ff1bcce	0.015811868008708534
218	0x3f840e42e7c4ff04	0.009792826364559477
219	0x3f66b8f250c5ba89	0.0027737362599318843
220	0xbf6046e3eabd6105	-0.0019869281294796503
221	0x3f8281c0d8f24151	0.009036547299076022
222	0xbf8d95fda6cd6736	-0.014446241047767577
223	0x3f78ef4a2c064f28	0.006087579473746087
224	0xbf42eebb02bfb232	-0.0005777753008238738
225	0xbf761da38b561271	-0.005399359555103276
226	0x3f726c3da08a07ba	0.004497757655032625
227	0x3f76d733c78799f1	0.005576326621371739
228	0xbf71203de778572c	-0.00418113881416619
229	0xbf7573a249f1454e	-0.005237230244419534
230	0xbf888bcb06540e3a	-0.011985384112001108
231	0xbf8ca33f59f83160	-0.013983244832183217
232	0x3f527bee7ac43f1d	0.0011281803991244962
233	0xbf5ce7c12c5c7b8a	-0.0017642389734146857
234	0x3f8e08a7e77feca5	0.014664947273550341
235	0xbf84111aca2e80c1	-0.009798249526113858
236	0x3f53f821bf3abc4f	0.0012188272057007848
237	0xbf82679e8996f231	-0.008986700605299354
238	0xbf859eadc746c00a	-0.010556562084133265
239	0x3f7a58d0ecb4f531	0.006432357894764083
240	0x3f63fc951ae97021	0.002439776631304028
241	0xbf92cc5135923557	-0.018357533354494162
242	0xbf570b8c72f48eaa	-0.0014065620014855154
243	0xbf8a3f5204e08965	-0.012816086553418324
244	0x3f56ab5ad8341f1a	0.0013836276201021958
245	0x3f83bfed5b331c93	0.009643415780727948
246	0xbf7ecc1515d306f3	-0.007518846859228867
247	0x3f83369ebf6ab6b3	0.009381523338869746
248	0xbf609e596691949e	-0.0020286317926996996
249	0x3f78f6be808c30e1	0.006094688557606726
250	0xbf278749f65afa5b	-0.00017950799808903986
251	0x3f81b68674ce990d	0.008648920478503653
252	0x3f8711a6c1e6f9b8	0.01126413611643505
253	0x3f85857e0056e3ba	0.010508522401197474
254	0xbf46d27c38d12285	-0.0006964785149046892
255	0xbf80547798495996	-0.007973608336368437

b f8 [10, 1]
0	0x0000000000000000	0.0
1	0x0000000000000000	0.0
2	0x0000000000000000	0.0
3	0x0000000000000000	0.0
4	0x0000000000000000	0.0
5	0x0000000000000000	0.0
6	0x0000000000000000	0.0
7	0x0000000000000000	0.0
8	0x0000000000000000	0.0
9	0x0000000000000000	0.0
