model_parameters_one_epoch.npz (npz, 63290 bytes, 2 tensors)

W f8 [10, 784]
0	0x3f7cbc9af807665b	0.007015805575485946
1	0x3f8f5ce757bcfdd3	0.015313918461855735
2	0xbf8d998c5cd42411	-0.01445302637377391
3	0xbf78e2c5b4e13061	-0.006075641909841862
4	0x3f862ab8a954c938	0.01082367197759436
5	0x3f79eea07e862a21	0.006331087999920133
6	0xbf8dd75468119dcd	-0.01457086508362595
7	0xbf66f7a5030ac801	-0.00280363301166009
8	0x3f769a1301f63066	0.005518030403788376
9	0xbf85f70c11b593aa	-0.010725111284679862
10	0xbf81b603b7122a08	-0.008647946380979668
11	0x3f915541adff4c66	0.016926790471029206
12	0xbf6570b8eb80c351	-0.002617226764435911
13	0xbf15509f71b10194	-8.131001634215643e-05
14	0x3f604e04164ad966	0.0019903259111188508
15	0xbf59408b15eec0dc	-0.0015412672289408158
16	0x3f9539d36428741a	0.020728400219116684
17	0xbf81870cf2b75c4e	-0.008558369786369504
18	0x3f8e16262cea2454	0.014690683599171951
19	0xbf909445915f33b0	-0.016190611837192115
20	0xbf7339c00bd8a9b7	-0.004693746739159391
21	0x3f96d794a8819fd1	0.022306750092326248
22	0xbf5d9192181ad1d2	-0.0018047262860082414
23	0xbf6a4bc6deadfa0e	-0.00320996133581209
24	0x3f683cd0f1ef2f3a	0.0029586869199870443
25	0xbf82e9d65943fe98	-0.009235071753664045
26	0xbf81ccfde72f5de0	-0.008691772096354577
27	0x3f69713cf2e291d1	0.003105753937307145
28	0x3f8f17be5938b48c	0.015182005975555656
29	0xbf702a62e6179f48	-0.0039466727480215805
30	0xbf39ac4f6818ecc3	-0.0003917402137607157
31	0x3f3722e4fb476dd7	0.0003530320202835535
32	0xbf6e5cbff4196d8e	-0.0037063359348345542
33	0x3f818b857474674f	0.008566897026458213
34	0x3f6549f2c83e49d3	0.002598737892136807
35	0x3f4b67260771a512	0.0008362708748680689
36	0xbf887e60e90ea887	-0.011959797966330633
37	0xbf7fdb1b2da39df2	-0.007777315297267761
38	0x3f76f8a1a840fcd3	0.005608207200622678
39	0xbf8552a09f14433b	-0.010411505560598769
40	0x3f77a6f2d83a59fd	0.005774448978306254
41	0x3f66ac8ee8834144	0.0027678290535747847
42	0xbf812751a49ba5f1	-0.008375776134431386
43	0x3f852e89d49740e8	0.010342671203858747
44	0xbf50f59c048a0aab	-0.0010351203547151282
45	0xbf54d8718a132114	-0.0012723072798497869
46	0x3f7478fed50bf640	0.004998202741942459
47	0x3f644177edc0bb46	0.002472624049935676
48	0xbf8503656e4ec489	-0.01026038401491493
49	0xbf6a81a30d957f0b	-0.003235643828403916
50	0x3f76d7446d7769bc	0.005576388640714244
51	0x3f97d3338d6e1d0d	0.023266606814584857
52	0xbf6c204555fb333b	-0.003433356687173731
53	0xbf8a03ab0fe2f6e1	-0.01270230905754083
54	0xbf4e10cbcdff12be	-0.0009175295963293679
55	0x3f8a5f288885daf3	0.012876812616679589
56	0x3f922aa35d073731	0.017740776589383948
57	0x3f71fe91eb7a9a45	0.004393167495129695
58	0x3f931e792166aeda	0.01867093340267343
59	0xbf6641b991d871a4	-0.002716886940801371
60	0x3f914019db1ee7fd	0.016846088408534843
61	0x3f99b66d4389b8cd	0.02510996556014149
62	0x3f760d2be08a7a35	0.0053836549710966535
63	0xbf59fc0548539900	-0.001585965307918935
64	0x3f5ba55c65ea40fe	0.0016873743367434297
65	0x3f77824ae106d610	0.005739490982184417
66	0xbf940d7d81284e98	-0.019582711227555366
67	0xbf64b13faadea0f9	-0.00252592501688664
68	0x3f66cfc993bf3881	0.0027846276334236313
69	0x3f8cccfdfabd53d7	0.01406286641546643
70	0xbf868df9d65e31eb	-0.011012985090723645
71	0xbf948f31e28aaec1	-0.02007749505234702
72	0x3f5422fe411760fc	0.0012290461494242613
73	0xbf80f4a7ef2229b3	-0.008279144273065286
74	0xbf6af92231efb868	-0.003292624270662837
75	0xbf7ff1ed26f4b587	-0.007799078345937522
76	0x3f880de37f516210	0.011745240519460715
77	0xbf379f83c9f878c7	-0.00036045997146228994
78	0xbf80e0d3b39c22e4	-0.008241323393592244
79	0xbf68c37ce27f51e4	-0.0030229033618331836
80	0x3f802412f11b56f5	0.007881305678363296
81	0x3f5b533b83b895a4	0.0016677933880456597
82	0xbf5d79525fbdd344	-0.0017989448960779733
83	0x3f82389730034da6	0.00889700045846704
84	0xbf54427a5648e4e5	-0.0012365526864768714
85	0x3f3c4c85bc38ed98	0.00043180718441578883
86	0xbf73281607e05d2b	-0.004676900918659836
87	0x3f75646cd9bba833	0.0052227260564255305
88	0xbf8069b9b01a427e	-0.00801415508911529
89	0xbf93442246001745	-0.018814597628100022
90	0x3f780c67a6f3ddd2	0.005871205226177749
91	0xbf803ef78a7357eb	-0.007932599938083448
92	0xbf91fc7dc04e5d47	-0.01756474004977562
93	0xbf608ff4012145fb	-0.0020217672072611026
94	0xbf81e049b5ebdb29	-0.008728576530740622
95	0xbf8eea5fb87a2c14	-0.015095470254229006
96	0xbf9853963ec98b41	-0.02375635870192672
97	0xbf8f6c6f3bd4333e	-0.015343541158040371
98	0x3f77c19e3b8d1bfd	0.005799882980517698
99	0xbf99af85ebd74a0e	-0.025083630103674585
100	0xbf9c332b619838f9	-0.02753894599123272
101	0xbfa15f9513390202	-0.0339323602643198
102	0xbfaa745fdf6438f2	-0.05166911699244449
103	0xbfa3e7a2918fa671	-0.03887661005849175
104	0xbfa37b5ccb899270	-0.03805055603587426
105	0xbf95072777ec4f60	-0.02053510350658827
106	0xbf57d9febc7b043b	-0.001455782667037177
107	0xbf939fc4877538e1	-0.01916415287751583
108	0x3f7cc7152909cbda	0.007025797517246491
109	0xbf70770b07b3879f	-0.004019778333914119
110	0x3f7d21c2892f6b06	0.007112274080067099
111	0x3f62a5113bc85fe4	0.0022759758560475397
112	0xbf848209d55a0251	-0.010013653586839729
113	0x3f622d3ca2cae743	0.0022188362403000885
114	0xbf71e6d386bd78d9	-0.004370523714753293
115	0x3f82f15803d262c0	0.009249389282829923
116	0x3f550aabf476b578	0.0012842826125550582
117	0xbf9b9f6e43eaf12f	-0.026975367446298634
118	0xbf7e8e75f103df02	-0.0074600798691262255
119	0xbf7e8f55536a0a98	-0.007460912040758182
120	0xbf94bf996c8399ed	-0.020262143371747077
121	0xbf99e45d3e935388	-0.025285202926926625
122	0xbfa4096a2315c2b3	-0.03913432768138616
123	0xbfab52e8671a4651	-0.05336691149308293
124	0xbfb10d46f9aefd5e	-0.06660884471692927
125	0xbfa24615bfaeaf7b	-0.035690955780721866
126	0xbf9d6d46e754bf70	-0.028737171048475785
127	0x3f64b924bc71c3b3	0.002529689550606362
128	0xbf808e609beb0441	-0.008084063299408696
129	0xbf806c9c6552dd0a	-0.008019658891824228
130	0xbf937acd8fecb2eb	-0.019023143681965598
131	0xbf9f3c498c032ffa	-0.03050341527050191
132	0xbf9708161d54be67	-0.02249178461096193
133	0xbf87ec17d15f2c54	-0.01168078048421798
134	0xbfac220155fbb4df	-0.05494693922615012
135	0xbfa051fbfef4bfcf	-0.03187549102074138
136	0xbf901d6d3fc43209	-0.015737254158965572
137	0x3f8d18f8855f0f25	0.014207784242791963
138	0xbf916b91bf1799a0	-0.01701190689882426
139	0xbf785d16e7c45a5e	-0.005948152040466141
140	0x3f3fe57c5de7c3c8	0.00048670088099727867
141	0x3f2ac76ade181b6c	0.00020430736098849976
142	0x3f78ac8fb1985da9	0.006023942283284547
143	0xbf9037d779ccba65	-0.015838019188942804
144	0xbf9a911f74f75c61	-0.025944224847844647
145	0xbf9505bded23cd25	-0.020529716109149682
146	0xbf99d14f773494a6	-0.025212518358917045
147	0xbfa616b6e47b8b3d	-0.0431420473012367
148	0xbfb155320c9b6c5c	-0.06770623023787564
149	0xbfa6ff7d22de5ccc	-0.044917974955006906
150	0xbfa9a698092453d8	-0.05009913550944817
151	0xbfa8cf5d63920633	-0.04845706787547179
152	0xbf810a3e1e99f89e	-0.008320317562944542
153	0x3f8a121ff092553e	0.012729882744944573
154	0x3fb377557dd99699	0.07603964159496925
155	0x3fc0874c3ecc8cc2	0.12912896219595466
156	0x3fc21e95dbae6efa	0.14155839182500768
157	0x3fc3cba5c00de98e	0.1546523273244244
158	0x3fc08b4de0d3dfa2	0.12925122716819454
159	0x3fb5bd9815ee1dfd	0.08492422614482815
160	0x3fabf52bf5420841	0.054604886711800756
161	0x3fad8d9d5b71d83a	0.05772105923908595
162	0x3f8604a05162217a	0.010751011355993201
163	0xbfa153d93ad819d2	-0.03384283870041184
164	0xbfa37f56b0ec0fb5	-0.03808089170163901
165	0xbf88b582dc9c2d49	-0.01206495509861462
166	0xbf878fbec3ae7354	-0.011504640909885268
167	0xbf97448ec25dcc83	-0.02272246419256564
168	0xbf7d76707c1b4a45	-0.007193030732838117
169	0xbf4f167c2792f06f	-0.0009487253402293959
170	0x3f787b3331603f24	0.005976867649238025
171	0xbf8a94b5bc5a1ef6	-0.012978954134509984
172	0xbf8b758559a0b9f7	-0.013407747075771843
173	0xbfa332e7089da753	-0.037497730066049194
174	0xbfa961a61ba27afe	-0.049573126672148846
175	0xbfa5f089f302acbf	-0.04285079089580667
176	0xbfae204f8efb117b	-0.058840261653616964
177	0xbfadb201478cfc48	-0.05799869535848551
178	0xbfa4c7f6322bfeb3	-0.04058808672379879
179	0xbf7011d26abfe0b9	-0.003923246327751589
180	0x3fa0cb3a91965d53	0.03280051257314178
181	0x3fb6f3c2fdaf0f2b	0.08965700810864223
182	0x3fc0b63e2fbbad74	0.13056161242216613
183	0x3fc5c81c40f85e51	0.17016938373920934
184	0x3fc8fbd07e83c466	0.19518476655460687
185	0x3fcb2ea5ccc2b76a	0.21236107347561567
186	0x3fc56fcc955da3b0	0.16747433942080425
187	0x3fc2dc4b8b2aa4dc	0.1473478726887042
188	0x3fc09bf40601cdd2	0.12975931447327455
189	0x3fb51848cea57bb6	0.08240180058554256
190	0x3fb0cd0fdf380d84	0.06562899779969739
191	0x3f86ebb37af582fe	0.01119175166121655
192	0xbf9d324bcf7f7cd8	-0.028512177028343938
193	0xbf988dbdfddb7564	-0.023978203410356072
194	0xbf86973de48bd372	-0.011030658280540815
195	0x3f62c1c15283ce87	0.002289655287421702
196	0xbf85119fa411006d	-0.010287520594033784
197	0xbf739ebaea0cd0e0	-0.0047900487268643654
198	0x3f85c766e2a6d9ca	0.01063423518358499
199	0xbf9596312cbebfdf	-0.021080749851250743
200	0xbf9155eabf0162df	-0.01692930975727591
201	0xbfa51d67dd725d5a	-0.04123997286040533
202	0xbfb01a2bbbaf290c	-0.0628993352139881
203	0xbfb04d07058c5370	-0.06367534528210483
204	0xbfb84e8065735183	-0.09494783856218274
205	0xbfafb2f425e5e84e	-0.061912183405141805
206	0xbfa1446a30f24fe9	-0.03372508857242435
207	0xbf4c5a59b375c95e	-0.000865262793850168
208	0x3fa3eb0255ae1ee9	0.03890235229397183
209	0x3fbe7f53aa8ec6bc	0.11913035310751757
210	0x3fc93606ec707c05	0.19696127457515913
211	0x3fccc2ff065fc95f	0.224700811493288
212	0x3fca22bdca1a5619	0.20418522232346062
213	0x3fc625e8d014e167	0.1730319038413299
214	0x3fc65b15bfe2bea0	0.17465469235820752
215	0x3fc5aea10cf5e942	0.16939175732461292
216	0x3fbc052684be4a9c	0.10945358982852799
217	0x3fbf9296c22207af	0.1233305190999363
218	0x3fbace11b64f3eb3	0.10470686627308616
219	0x3fa506f0841474be	0.04106856930068535
220	0xbfaa4c650c3f8148	-0.05136409544479875
221	0xbf96f96699a34631	-0.02243576348047877
222	0xbf978fa31bb5b2aa	-0.023008869711179138
223	0x3f773a972f63a4f1	0.005671110693790769
224	0xbf42eebb02bfb232	-0.0005777753008238738
225	0xbf76747aeef6bd29	-0.005482177933500845
226	0x3f4b7c1a56dc949e	0.0008387688264731746
227	0xbf71e7eb4503887b	-0.004371565839592968
228	0xbf99dbf70b4efc55	-0.025253162446230288
229	0xbfacab998e7487e7	-0.05599670280413687
230	0xbfb6c10dc337b3b0	-0.08888326660208068
231	0xbfbc773cce8f111f	-0.11119442027035518
232	0xbfb2320bb6652bdb	-0.07107613757140945
233	0xbfa88880a4a199d5	-0.04791643151911599
234	0xbf87ec7e17272b17	-0.011681542474339985
235	0xbf8956de411b50c4	-0.012372719156168784
236	0x3f863b5095d558d9	0.010855321476509182
237	0x3fae2db34d7daf69	0.05894241639074844
238	0x3fc141cc32941961	0.13482048482564848
239	0x3fc911a5463a41a2	0.19585100106315873
240	0x3fcc41eceb901b07	0.22076188566298802
241	0x3fc6242f562c82e5	0.1729792757769452
242	0x3fc90a390dfad09a	0.19562447722058068
243	0x3fc4b079c34914e3	0.1616356090109213
244	0x3fc0af20de9161b6	0.13034449451039415
245	0x3fb8812844ae1c50	0.09572078396568995
246	0x3fbf87cf3c32d89f	0.12316603870098895
247	0x3fb4c8dc4d698982	0.08118988885829562
248	0xbfa88e88e5657ffc	-0.04796245384454775
249	0xbfa82d9d9c3bd280	-0.04722301990651534
250	0xbf8d4eb79116e044	-0.014310297122264733
251	0x3f80fb8e1d0805fd	0.008292303334203938
252	0x3f8711a6c1e6f9b8	0.01126413611643505
253	0x3f84d61be7762024	0.010174005509512148
254	0xbf7c0a8e5c8b65e9	-0.006846004581086509
255	0xbf9ad7dfa4299df1	-0.026214117426574594

b f8 [10, 1]
0	0xbfd11da263792715	-0.26743373598275016
1	0x3fd4373fd1fba4db	0.3158721495261269
2	0x3fa7ef06d5694217	0.046745503951232496
3	0xbfccdd41a46242fd	-0.22550220991663386
4	0x3fa8890f279846c1	0.0479206786950619
5	0x3feedbabaeb4b426	0.9643152630066012
6	0xbfad41e98e922c68	-0.05714349618309528
7	0x3fdedcea5589ec9b	0.48223360398669407
8	0xbff2025b167d51d6	-1.1255751493928208
9	0xbfc7392f063aab1c	-0.1814326076904188
