model_parameters.npz (npz, 63290 bytes, 2 tensors)

W f8 [10, 784]
00000000: 5b66 07f8 9abc 7c3f d3fd bc57 e75c 8f3f
00000010: 1124 d45c 8c99 8dbf 6130 e1b4 c5e2 78bf
00000020: 38c9 54a9 b82a 863f 212a 867e a0ee 793f
00000030: cd9d 1168 54d7 8dbf a399 dc22 a5f7 66bf
00000040: edc3 7d2b 1e38 8c3f ea8b 5767 80f8 85bf
00000050: fbe2 3077 dbb7 81bf 5ed8 e086 8954 913f
00000060: 24f7 f946 f171 65bf dff5 ee4b a350 15bf
00000070: 18d5 f39e c83b 603f e355 9c21 3d4d 59bf
00000080: 5263 074b 8e39 953f 4e5c b7f2 0c87 81bf
00000090: 94f3 c84c da0c 8e3f 3a03 ada6 4594 90bf
000000a0: b7a9 d80b c039 73bf d5d3 e387 94d7 963f
000000b0: 98ab a811 9491 5dbf 0efa adde c64b 6abf
000000c0: 3a2f eff1 d03c 683f 98fe 4359 d6e9 82bf
000000d0: e05d 2fe7 fdcc 81bf d191 e2f2 3c71 693f
000000e0: 8cb4 3859 be17 8f3f 489f 17e6 622a 70bf
000000f0: c3ec 1868 4fac 39bf d76d 47fb e422 373f
00000100: a37e f353 c75c 6ebf 4f67 7474 858b 813f
00000110: ddb7 f105 d648 653f 233e 8178 a92c 493f
00000120: bbdf e6a7 71ba 88bf 0122 ccee c006 80bf
00000130: afa0 f956 cfd8 763f 1454 56e1 ffa7 75bf
00000140: 9780 3db9 5602 783f 0be8 2418 a5d9 693f
00000150: 0195 365e 142f 81bf a744 523e e227 853f
00000160: 2407 66b0 391c 51bf 9af1 d804 bb41 55bf
00000170: e5fb 42de cc72 743f 77e6 71ad c899 7d3f
00000180: f49c bcab 8622 5c3f d450 bb94 2792 6abf
00000190: b122 ce7a 11d7 763f 0d1d 6e8d 33d3 973f
000001a0: 3b33 fb55 4520 6cbf e1f6 e20f ab03 8abf
000001b0: be12 ffcd cb10 4ebf f3da 8588 285f 8a3f
000001c0: 3137 075d a32a 923f 459a 7aeb 91fe 713f
000001d0: fd24 2d25 781e 933f 7bfb 6a3a cb41 66bf
000001e0: 360d 1fd9 a23b 913f 5590 7bbd a68f 993f
000001f0: caf6 1191 56f3 713f cf46 19ee 578c 67bf
00000200: 970a 59c4 f4da 723f bcab 5b21 7af4 863f
00000210: 6bad 8ae3 4c7c 603f 887b ad03 9480 65bf
00000220: 1ff1 9e0e 3f1f 663f 0f93 1fdd bb12 8d3f
00000230: ce1e f686 ef20 87bf c3a5 26d9 1350 95bf
00000240: c7a6 dc68 9997 5cbf 89e9 6761 ceef 91bf
00000250: 6667 f38f a15e 87bf d757 2913 496c 8bbf
00000260: c53c 4fbc da42 833f f2cf a810 d42d 85bf
00000270: 0ba0 cdbf 6cb9 84bf 87a0 886d cbc6 69bf
00000280: 483b fd21 9493 7c3f f4a3 66c3 3d07 5b3f
00000290: 44d3 bd5f 5279 5dbf a64d 0330 9738 823f
000002a0: e5e4 4856 7a42 54bf 98ed 38bc 854c 3c3f
000002b0: 1497 5844 6a00 6dbf d818 4e1f 4880 803f
000002c0: ec52 29de 9db1 80bf a1b7 2167 c992 94bf
000002d0: 2621 3b38 2109 733f 30ae ffc7 67a6 86bf
000002e0: 59d1 050c 66ef 80bf cd90 a94a 6930 983f
000002f0: ddb0 10fc f36d 773f 35d2 88c2 ad50 7cbf
00000300: c24f ebf2 c66a a3bf bc03 30ad f6fe 96bf
00000310: ef4b baed f22b a5bf 4764 0a38 5307 b2bf
00000320: 275e 6c2a 816d aabf b67b 0665 6492 a9bf
00000330: 9ac6 a895 59a3 b8bf 574a 3368 5b1e acbf
00000340: ac4c 7447 db01 aebf d993 c1d1 2d70 a3bf
00000350: f4c2 da82 c4fb 99bf 6578 7934 d6d9 a1bf
00000360: df63 786f 1119 773f 0f36 cad0 eea2 70bf
00000370: 84a0 a9b0 9b20 7d3f e45f c83b 11a5 623f
00000380: 5102 5ad5 0982 84bf 6628 5453 3c2d 623f
00000390: 46e2 2648 9733 70bf 5189 7e68 6c29 763f
000003a0: f7b0 2149 7168 80bf 576f da2e fff3 aabf
000003b0: 70fc 747b c378 abbf 8000 197b bca1 aebf
000003c0: 8c41 e6d3 a6f2 b4bf 6879 0658 2818 a9bf
000003d0: 63db 9415 5863 a9bf 989b 0866 42a9 c1bf
000003e0: 185b f48a ae7c c0bf 2b62 ef0a 6fda 84bf
000003f0: 3033 1da7 20ea 96bf 5b03 eab7 8cba b73f
00000400: b05a c335 6756 b63f 145c d8d6 6d8d b23f
00000410: 3452 27e5 a9c7 863f 8548 41f8 c521 6ebf
00000420: 1daf a2e5 9f1d a33f 93e4 0fa8 a937 a3bf
00000430: e30b 60f3 da84 cebf e224 43b6 4372 c7bf
00000440: a3ef 5be6 aa93 a4bf 8662 cb38 4e00 8b3f
00000450: 23d5 dc91 1c77 91bf b042 1417 915d 78bf
00000460: c8c3 e75d 7ce5 3f3f de1e dc79 31c7 2a3f
00000470: 0650 b191 dac6 773f 41da 0370 cd1a adbf
00000480: a89f fb78 fa5b b5bf 17f1 ead6 d079 babf
00000490: 98d3 7621 1ba6 aabf 1510 26ef a647 acbf
000004a0: 2258 7458 61b3 b9bf 0075 fbb0 ef5c b0bf
000004b0: 5a5d c8e4 b58b 71bf cc6b bdbc 317f c1bf
000004c0: 0df4 e809 edb5 a5bf bcff f67b 3471 843f
000004d0: 7eb4 9cc8 0528 d03f 2e63 8c28 059f d63f
000004e0: f7ea e830 5ee6 d53f 5330 c456 5ba4 d33f
000004f0: 7fb4 4e29 21f2 bb3f 7e63 f5c5 495b ba3f
00000500: 6f21 e7f5 02a6 ca3f 0cc2 fdf1 6feb c33f
00000510: e2c0 d1c7 0b61 92bf 440a f16b 1bb3 c6bf
00000520: b53f 45c8 5c56 b2bf e962 fe55 ce76 95bf
00000530: eeb1 ee7b 99a1 8dbf 6cfb 6d96 f646 97bf
00000540: 454a 1b7c 7076 7dbf 0336 7e64 ec19 4fbf
00000550: 2bc1 89cf 3cac 87bf b326 db82 85df b2bf
00000560: 7144 4d11 0d8d b2bf c8df 4ff3 28d3 a9bf
00000570: f4df b36c 78ca 9fbf 2de4 fde7 875a 963f
00000580: d278 7c66 201e acbf c0d3 dca4 a8a5 c0bf
00000590: d848 5b29 53e8 b5bf 847d efc3 7d3c a83f
000005a0: 72d7 fac9 2001 c83f bc58 2360 e117 d03f
000005b0: fa58 c442 12a7 c73f 406a 4af2 233e 933f
000005c0: f272 acfb 118d cb3f 8af4 b9f5 c992 d23f
000005d0: 8eef 459a f5c5 c03f 5e49 ea79 2026 cc3f
000005e0: 70f9 5fb0 7b5b c73f 5f73 1c73 7f96 c53f
000005f0: 03f0 77fd 0516 b83f 6f6e e5bf 5c9e a8bf
00000600: bf08 6dae d147 bdbf 15d0 d069 607a b1bf
00000610: 0cde d449 0cdb 93bf 26fa de5c 268a 623f
00000620: 6d00 11a4 9f11 85bf d1a3 040a dfa0 73bf
00000630: 87eb d17d 1ed0 83bf 471b c42a 29c1 b6bf
00000640: cf58 67fd 96d1 9fbf 1ba3 a82f 223d 89bf
00000650: 91a4 391e 6bb7 7a3f e1c5 71d5 d19c a7bf
00000660: 1a3c 8983 65f0 c1bf 1369 2797 196e c1bf
00000670: 9cf5 de23 7a1c b9bf aed3 4e27 dec6 893f
00000680: 8c3c 73f4 c232 913f dc1a 5b36 cc45 cd3f
00000690: f4ee 88fa 08cf db3f b5fb de83 050c db3f
000006a0: b103 f3af 3078 cf3f 63c4 5722 ab25 c63f
000006b0: 4f6a f25c afab c23f 6c8d e345 1981 d13f
000006c0: 3567 691b 66cf b83f 1369 6dc9 9a1f c33f
000006d0: baba 6b00 d6df ad3f 2449 6c1c 3e49 b33f
000006e0: 2d53 499a bb6a c4bf b4ca 80e7 015f b9bf
000006f0: 9cfa 1f1d e9fb a7bf fccb 420e 7501 773f
00000700: 32b2 bf02 bbee 42bf e300 8c2a 2981 76bf
00000710: 982b 5b80 295c 90bf b10d 04ce e713 8bbf
00000720: c86a 85c4 65bd 953f 6308 c2cd 245b a13f
00000730: 81e6 6c84 44ce a1bf 5a11 d801 d091 cdbf
00000740: 0473 c336 341f b7bf d7c8 b9c9 1388 c2bf
00000750: fb23 caea 3175 adbf b16b 5a82 5332 68bf
00000760: 5fc0 bff0 af42 a2bf e023 b47d 3c1d bd3f
00000770: c02f 3200 b143 cd3f c022 bef2 36ee d23f
00000780: 3767 c2d8 1f0d d53f cdb5 1afe 2928 be3f
00000790: 2bcd 1af6 54f8 d13f 8e1a e914 ad5a cf3f
000007a0: ee4e f0e0 9289 ca3f 93b0 8fd7 0445 92bf
000007b0: e410 e232 9ea2 c73f 236e 8fa1 086c c03f
000007c0: 9ade 9b9b cfae bcbf e624 17dd 40f1 c5bf
000007d0: 0f5f e9d5 1ac9 a7bf 74bf 5fd9 20c7 803f
000007e0: b8f9 e6c1 a611 873f e086 62c2 1e9f 843f
000007f0: b04d d678 35b8 9bbf 9f56 8c6f 6162 a1bf
0.007015805575485946 0.015313918461855735 -0.01445302637377391 -0.006075641909841862 0.01082367197759436 0.006331087999920133 -0.01457086508362595 -0.002803633243178187
0.01377891130661798 -0.010727885392901333 -0.008651461195869006 0.016924046380346495 -0.0026178085752793945 -8.131024058762687e-05 0.001981632077895267 -0.0015442940697928335
0.02072737057628455 -0.008558369786369504 0.014672952144900532 -0.0161906130772451 -0.004693746739159391 0.022306748193802257 -0.0018047281252033583 -0.00320996133581209
0.0029586869199870443 -0.009235071753664045 -0.008691772096354577 0.003105753937307145 0.015182005975555656 -0.0039466727480215805 -0.0003917402137607157 0.0003530320202835535
-0.0037063496707644013 0.008566897026458213 0.0025982074872023934 0.0007682635778198426 -0.012074363647897593 -0.007825381553190349 0.0055778598030899315 -0.005287169963954081
0.005861605419198799 0.0031555389879516275 -0.00839057838931945 0.010329978491684889 -0.0010443271035857704 -0.001297409663847926 0.004992294565623977 0.007226737877425663
0.001717216028689181 -0.0032435200754240365 0.005576198845013523 0.023266606814584857 -0.003433356687173731 -0.01270230905754083 -0.0009175295963293679 0.012876812616679589
0.017740776589383948 0.004393167495129695 0.018670918721260133 -0.0027169198322946598 0.016829056264908014 0.02496204883108562 0.004382455969901231 -0.002874538172172737
0.004603344079046188 0.011208490508087247 0.0020123960242323566 -0.0026247874169906295 0.002700446279929505 0.01419588821949838 -0.011293288522906588 -0.020813284043162527
-0.001745128454283694 -0.017516350455460326 -0.011410963254480055 -0.013390131852400273 0.009404858466864128 -0.010341316946416133 -0.010119294741983273 -0.003146550483752067
0.006976679462083642 0.0016496756703452383 -0.0017989448960779733 0.00889700045846704 -0.0012365526864768714 0.00043180718441578883 -0.0035402370001688197 0.008057177977900329
-0.008151276914909876 -0.020091196937236714 0.00464737869669588 -0.011059580603578117 -0.008269116632370442 0.02362217443659702 0.005720093789062211 -0.0069128787513830685
-0.03792401995966045 -0.022456983871965028 -0.04135092880201074 -0.0704242717569211 -0.05161670344221774 -0.04994500859469701 -0.0962425222758391 -0.05491910597779242
-0.058607914421508894 -0.03796523271083858 -0.025374479758002402 -0.034865087419107245 0.0056391411849512066 -0.004061634896641588 0.007111175693900521 0.0022759758560475397
-0.010013653586839729 0.002218835662124485 -0.003955450958919976 0.005410598248916835 -0.00801170830182983 -0.05264279791774012 -0.0536557281688993 -0.05982769968659429
-0.08182757066084018 -0.049012432809137974 -0.04958606017537794 -0.13797788602934413 -0.12880498680962016 -0.010182254334652438 -0.022377500724633126 0.09269027223673502
0.08725590765548463 0.07247053618662874 0.011123015695298034 -0.0036782137486080523 0.037335392743754726 -0.03753404785670358 -0.23842942126802233 -0.18317457580113855
-0.04018911420823137 0.013184176548223247 -0.017055937197445147 -0.0059486072143647845 0.00048670088099727867 0.00020430067973386303 0.005804876123040264 -0.05684511177416996
-0.08343472913440897 -0.1034212612821118 -0.05204853805063364 -0.05523416203780599 -0.10039337548764185 -0.06391809531074344 -0.004283628961750574 -0.13669416156593994
-0.04240360971423494 0.00998154643355053 0.2524427851775001 0.35345581970027495 0.34218554283476926 0.30690654252317023 0.10916335352404082 0.10295544703457257
0.2081912708947686 0.15562247577646848 -0.01794832617855569 -0.1773409153994 -0.07163028611580453 -0.020961021422041624 -0.014468382925621772 -0.02273164075040361
-0.007193030732838117 -0.0009491352329732975 -0.01155898578983335 -0.07372316784599313 -0.07246476814658977 -0.05043914766423502 -0.03104580081432569 0.02182972291436529
-0.054917347441220024 -0.1300555043214029 -0.08557624587709556 0.047336511772068796 0.18753442632958756 0.25145754230960526 0.18478611240488602 0.018791734374284497
0.2152426222682134 0.2902092837974314 0.1310412410056156 0.21991353943719621 0.18247934448295267 0.16865532990132245 0.09408605039783428 -0.04808320848925695
-0.11437712200589355 -0.06827356894865518 -0.019390289312665884 0.002263140609073194 -0.010287520594033784 -0.0047920906511444575 -0.009674299444886859 -0.0888849000367432
-0.03107295915273128 -0.012323634223393711 0.006522577695798352 -0.04611831408045553 -0.14014882013950186 -0.13617248421253034 -0.09809077621226553 0.012586341452200358
0.01679520241742387 0.22869255689712176 0.4345114180211873 0.42260873678236105 0.24585541335366437 0.17302455117126944 0.14586441076683562 0.2735045607098161
0.09691465539199558 0.149401996949401 0.058348357726449376 0.07533634370728187 -0.15950722726361147 -0.09910594846659643 -0.046843800359046756 0.005616624115805099
-0.0005777753008238738 -0.005494271092857358 -0.015976570567356768 -0.013221560453991229 0.021230306739520782 0.033898496739326565 -0.034776822247704516 -0.23101234521903785
-0.09031988465308066 -0.1447777495373603 -0.057534751807061434 -0.0029536849059019423 -0.03566503347235605 0.11372736042916598 0.22862827786991424 0.29578946786254434
0.3289260498801129 0.11780035451621203 0.28078197511350095 0.24495471497558124 0.20732341750464606 -0.017841411263291262 0.184650206418275 0.12829692734418172
-0.11204240368885579 -0.17142496867589968 -0.04645618306375187 0.00819230712292527 0.01126413611643505 0.01006912260737941 -0.02706988859206455 -0.03395370947525333

b f8 [10, 1]
00000000: 6bb5 a44b 3ee6 eabf f259 50bb 07c3 e43f
00000010: c13b aeca aaa9 d03f e58a 3a4f 5347 e1bf
00000020: 6391 cb83 bf7a 903f 328f 8b6e 1eff 0140
00000030: 30f0 c429 a445 d2bf 9e32 e4f1 21e9 f33f
00000040: d50f b661 de3f 02c0 c8fd 4408 2735 debf
-0.840605876675608 0.6488073976968833 0.2603556613257148 -0.5399567172465508 0.01609324685968384 2.249569762834562 -0.28550056532890533 1.2444171379931173
-2.2811858781514993 -0.47199416930740457
