model_parameters_different_size.npz (npz, 63290 bytes, 2 tensors)

W f8 [10, 784]
0	0x3f84d4cc60db2965	0.010171505647481547
1	0xbf692b11bfec0d16	-0.003072294871687152
2	0x3f6e481adf2f5936	0.0036964917030487777
3	0xbf80ca2ef2f7666e	-0.00819813422178869
4	0x3f73fb78e28f85bd	0.0048784944601449306
5	0xbf8b09f94c0deb8e	-0.013202617295737597
6	0x3f5072d4fe201535	0.0010039405829059382
7	0x3f6a0e3c78594698	0.003180616479576081
8	0x3f9288894bc06d38	0.018098969696535877
9	0x3f333d562033e624	0.00029357292824236576
10	0x3f60b697955e6aa9	0.0020401917090116695
11	0xbf62b4ab38116bf0	-0.00228341523374586
12	0x3f56cc1c2381206e	0.0013914370338330667
13	0xbf8c1f96da8a7d31	-0.013732126755086145
14	0xbf85de47eb54af36	-0.010677873486734418
15	0xbf858a99858c5a0b	-0.01051826418692505
16	0xbf598a8017741dbf	-0.0015588999647791894
17	0xbf9c0ac16090f5e7	-0.027384778517662325
18	0x3f33d783f1fe8333	0.0003027627117209608
19	0x3f740877d643e2d7	0.0048908883220455035
20	0xbf694ca3341ed3e0	-0.003088301426908732
21	0xbf8699bd5d31d9c5	-0.011035422712876728
22	0xbf7d059d71381781	-0.007085433014713761
23	0xbf8c7cc2ce45465f	-0.01390983764636927
24	0xbf65f2d5222b9d32	-0.002679268146824087
25	0x3f62be490eb9ef64	0.002288000765302488
26	0x3f6abb6bc0e7b830	0.003263197380184678
27	0x3f81bd5ad4abb90e	0.008661946883389973
28	0x3f7dac32f8e55133	0.0072442999938469475
29	0xbf616c704a7368ac	-0.0021269028835436323
30	0xbf6c132921f40130	-0.003427105271498608
31	0xbf9258bb8c9d1b51	-0.017916613061312706
32	0x3f8fdd6fc33c0a5b	0.015559075494370569
33	0x3f5dfd2064d3bcd3	0.001830369600891936
34	0x3f91c8dae707d6ba	0.01736776385401726
35	0xbf905168e228f920	-0.015935553363527366
36	0xbf680d3d7a8abaf0	-0.0029360008960205228
37	0xbf78ddc71e0fcc90	-0.006070878794150705
38	0x3f9419e91d363350	0.01963009110254471
39	0x3f80b96b71200553	0.008166160001567368
40	0xbf83b1206ff7a497	-0.009615186135265836
41	0xbf8a438f29d66f80	-0.012824171509059346
42	0x3f6e3440564f0ec5	0.003687024744495423
43	0x3f52f7a0648977c1	0.00115767157890144
44	0x3f89b8b1a5f15fe9	0.012559306980776301
45	0x3f7951f7afcd81fe	0.006181685949599556
46	0xbf911dafa89fa46e	-0.01671480623909754
47	0x3f92fe398b4e850b	0.01854791558037498
48	0xbf8bea2c5ae49841	-0.013630243800957344
49	0x3f73f47452d5baf6	0.004871801747283957
50	0xbf69a782d34725c0	-0.003131633299038511
51	0x3f517e622b82e23c	0.0010677298251221675
52	0x3f7a99218ebd8092	0.006493693432133922
53	0x3f689d8c0a291ff7	0.003004811778087198
54	0xbf442ca6f096ffa3	-0.0006156745086442938
55	0x3f79feee4f333921	0.006346636672971224
56	0xbf70fbab44d44189	-0.004146260279654598
57	0xbf896d85bbda9e6d	-0.012415928645466335
58	0xbf83f73d80f1820e	-0.009748917100467682
59	0x3f3f83bbc9ffffaa	0.00048087439245136454
60	0xbf832dc8b544a470	-0.00936466983019299
61	0x3f82c44c6dc14a31	0.009163472270448643
62	0x3f61986af8a74d8c	0.0021478738101252167
63	0xbf8384657391dc0a	-0.00952986964169435
64	0x3f877ede35ff6b3e	0.011472450278167675
65	0xbf86beae8d917838	-0.011105884261436313
66	0x3f7ebf4c889025f9	0.007506655653750632
67	0xbf8ac09a3bf121aa	-0.013062672571451401
68	0xbf709c24dfa68eb2	-0.004055160558354908
69	0xbf6e13a6e3deb306	-0.0036714801380725052
70	0xbf55e398944b7a87	-0.0013360013992308754
71	0x3f731ee3226beff6	0.004668128246290584
72	0xbf5d91631b0e7be0	-0.0018046825245858697
73	0x3f69de0a4b2bd37b	0.0031576348350150197
74	0x3f809f02a703dc4d	0.008115788194556961
75	0xbf80eedb5b6e2eaf	-0.008268083312734957
76	0x3f8a0d1f486a4289	0.012720341107781212
77	0xbf6821753333cf15	-0.0029456414282494994
78	0x3f8a82142b348dd5	0.012943418091316975
79	0xbf65d2e8c772191e	-0.0026640459505557065
80	0xbf8b6a4a4e23b677	-0.013386326322201143
81	0xbf641f5378a6f6f2	-0.002456343679312017
82	0xbf996bc55d19ff17	-0.024825176055400435
83	0xbf801ad778822611	-0.007863696446537312
84	0x3f67f3488cfc7abc	0.002923623753204067
85	0xbf63e57ab0ad2512	-0.0024287601749263333
86	0x3f528950aa6d56a8	0.001131371283653074
87	0x3f86f636c972c05b	0.011211803457939753
88	0xbf7125d62722a647	-0.004186474356325193
89	0xbf78c4ef54ac11cf	-0.006047186742538859
90	0xbf66b20bba495762	-0.0027704457336694003
91	0xbf828dc17123aa16	-0.009059439912069183
92	0xbf893665fc8587e3	-0.012310787934158135
93	0x3f53fe0eea1dbbc1	0.0012202401780674196
94	0xbf81ffb8934c19ec	-0.00878853034511181
95	0xbf858cb8948b7b8a	-0.010522310288647824
96	0x3f69ade89251d441	0.0031346838391592973
97	0x3f2f190d7f572e5f	0.0002372578598354045
98	0xbf7859d1146df918	-0.005945030897122082
99	0xbf8ce84502412f96	-0.014114894038492126
100	0x3f869193e35b4cf5	0.011019854904054752
101	0xbf4ccaabb5f3b00c	-0.0008786524230379746
102	0xbf7d0fcfaecf0416	-0.00709515691863862
103	0xbfa0a6209647f7a2	-0.032517450661529126
104	0x3f7c488d91e0dea1	0.006905129439523401
105	0x3f610ded5a09014b	0.0020818362975491326
106	0xbf47862f156b1d7f	-0.000717900266715185
107	0x3f845445099411aa	0.009926356653985408
108	0xbf1482fa05987627	-7.824564945520998e-05
109	0x3f6abd1dfb16a82d	0.0032640061915190284
110	0x3f7d517be67785e0	0.007157787309070213
111	0x3f5399b8931ddac9	0.0011963179099134128
112	0x3f88d980707dcf13	0.012133601601568544
113	0x3f716132e30f7d32	0.004243086602371536
114	0xbf8c769f5da359ec	-0.013898129506213906
115	0xbf86a781616966b5	-0.011061678681630974
116	0xbf64573c7a9f6b90	-0.0024830037336704483
117	0x3f7359f0a1877006	0.004724445309388875
118	0xbf93de2498641bcd	-0.019402095605098247
119	0xbf5c76c0db722919	-0.0017372973796079881
120	0xbf6d9940ccae25c0	-0.0036131158462395507
121	0xbf843759c1cc22ab	-0.009871197916724602
122	0xbf8659c6ac7f718f	-0.010913421763626
123	0xbf8016a2f2017412	-0.00785567570727078
124	0xbf7c14e45167903d	-0.006855861537108207
125	0xbf920d9005d928e2	-0.017629862172079742
126	0xbf797afcfe154577	-0.006220806362152379
127	0x3f83983adbad1f63	0.009567699269282753
128	0xbf328b4f8756106f	-0.00028296176545717413
129	0x3f94b7b35377de93	0.020232011765954083
130	0x3f88419125d43dfa	0.011843809096290226
131	0xbf77d22c66ee243c	-0.0058156713920505775
132	0xbf806869d97f2dc5	-0.00801165289876494
133	0xbf7c9da5e09ecf09	-0.00698628230923127
134	0xbf805de4930b0d12	-0.007991586434747098
135	0xbf807736e302559c	-0.008039883425491827
136	0xbf70b619e610ba1a	-0.004079915205734719
137	0x3f83cf1ede846868	0.009672394910513485
138	0x3f6eef61db582cd5	0.0037762557283308276
139	0xbf871587d3f254a2	-0.011271535068127673
140	0x3f1bf04d4a0ab010	0.00010657760368343338
141	0xbf6e255ba30f93ce	-0.003679923036985922
142	0xbf81ad3427331d82	-0.008631141134528123
143	0x3f7c35307b11a752	0.006886662843592921
144	0xbf82dca5dc7957c6	-0.00920991496165503
145	0x3f256d2d832003d5	0.00016347103661476398
146	0xbf90ba773f676f77	-0.016336310620189445
147	0xbf8bd94147cf7805	-0.01359797478101755
148	0xbf88e5449970dc7e	-0.012156043942111557
149	0xbf8e07767be55bc2	-0.014662671714786305
150	0xbf958a2149a65491	-0.021034736747954034
151	0xbf835e7621ac6e1f	-0.009457514670024257
152	0xbf8b11db314356d2	-0.013217651787651805
153	0x3f954e0ff2efb3ba	0.020805596544892536
154	0x3fa7f72f35dd066d	0.04680774242889361
155	0x3fb0d0f0cbcc08c4	0.06568818068993482
156	0x3fa6b59e94b5800c	0.044354396489097864
157	0x3fb325e1180b61d6	0.07479674183867444
158	0x3fb5cc6c0144f246	0.08515048056592275
159	0x3fa57ab6ee5d39dd	0.041951862904727945
160	0x3fa1d0913e61e61c	0.03479436766151542
161	0x3f84dca6cdf494ab	0.010186484489688693
162	0x3f860d05d9248ebe	0.010767026604816873
163	0x3f86cd6dcb490712	0.011134011999391489
164	0x3f61b2e125e4adf0	0.0021604916975286256
165	0xbf85ebed1b403b2b	-0.010703899759418064
166	0xbf17a7b4c60eb7c8	-9.023705344077184e-05
167	0xbf410ae06baee84d	-0.0005200954250235229
168	0x3f92025738c17a38	0.017587054099175797
169	0xbf90bc0a83aab4b0	-0.016342319761567026
170	0xbf6322d131ba73ac	-0.0023359380555362987
171	0x3f90e00d1f6bf2c6	0.016479687731577618
172	0xbf8b3473af201e43	-0.013283637792496644
173	0xbf91c4b9a2503ad7	-0.017352009326766584
174	0xbf88d83f792af003	-0.012131210217710025
175	0xbf9b3078e9d4b7fc	-0.026552094718844885
176	0xbfa0f74f31e29c6f	-0.03313682064008893
177	0xbf964878e995382b	-0.02176083493878182
178	0xbf982fb7177e9ef0	-0.023619519051549298
179	0x3f841f87a29ca20c	0.009825763368625416
180	0x3f8e77a8a63b0387	0.014876668522789916
181	0x3fadd34316acc8b2	0.05825242664140386
182	0x3fb4835777a0d6d3	0.08012911482441192
183	0x3fb56752e524ce7f	0.08360784620600191
184	0x3fba9395b9337e12	0.10381446620476023
185	0x3fbe27391eb98884	0.11778599739185053
186	0x3fbbf6a941340e44	0.10923250047567828
187	0x3fb6a283d7d6c8f1	0.08841728229052472
188	0x3fa4bec2bd08c175	0.040517888617958166
189	0x3f9bc3bcb4126367	0.027113865366661296
190	0x3fa53e38488fcaf7	0.04149032483828379
191	0x3f69fd1595f93ff9	0.003172437820275317
192	0xbf8a7bd1335001af	-0.012931475046571743
193	0xbf7ac41afcd18bc7	-0.006534676952557334
194	0x3f63e4371bd4004b	0.0024281574575298107
195	0xbf5935cf95fdfd5a	-0.0015387084203835806
196	0x3f5aef2f29afc9b1	0.0016439400267215072
197	0xbf65b8c0183d032c	-0.0026515724038350865
198	0xbf74138168c2c8e5	-0.004901414398931635
199	0x3f64c1c87e194457	0.0025338092680518387
200	0xbf70185d437197b6	-0.00392948561702682
201	0xbf941cd667dd1621	-0.019641256417591294
202	0xbfa87edac6d0ee8a	-0.04784282376246292
203	0xbf939a9f990e4178	-0.01914452907254957
204	0xbfa303923bec7edf	-0.037136621298712084
205	0xbf978ebfefc42ec1	-0.0230054845897445
206	0xbf870f425dc85286	-0.011259573447241832
207	0x3f8be3d05af2f700	0.013618114257379244
208	0x3f996af103fa994a	0.024822011821606517
209	0x3fadac147fbd1f54	0.057953491776571525
210	0x3fb3257025f276cc	0.07479000975078093
211	0x3fbb5beb41e4a198	0.10687132223814044
212	0x3fbd1e164e6822bd	0.11374034322956113
213	0x3fbf45c0c4249cc8	0.12215809620521434
214	0x3fc0a4730bf5e8ab	0.1300185974503781
215	0x3fc0179884c19af5	0.12572008592834263
216	0x3fb026ba9eac44be	0.06309095739222223
217	0x3fa65dad05f5df20	0.04368344018706538
218	0x3fa1632725e04b72	0.0339596017585312
219	0x3fa3f63491e21108	0.03898777275847648
220	0xbf91439b2df23b9a	-0.01685945957120403
221	0xbf88f65bf3158e84	-0.01218864284118771
222	0xbf8351be11c8e05f	-0.009433255117173354
223	0x3f9736a385855f4a	0.02266936781356258
224	0x3f79507b31e73b20	0.006180268507207015
225	0x3f661cf3b778cc28	0.002699352273134465
226	0x3f8b906fd4b26ac8	0.013459085157866993
227	0x3f811da3f7d8021a	0.008357316018192274
228	0xbf805a4c2f673301	-0.007984729000690917
229	0xbf8a52ed5f0b5ee4	-0.012853483641648684
230	0xbfa1fdee6fc894d5	-0.03514046778244909
231	0xbfa7cc5a46285ae3	-0.04648096186081376
232	0xbf99f7d4d7961456	-0.02535946431955368
233	0xbf92ab8fc3705d29	-0.018232580474515068
234	0xbf3fe35bab310bc5	-0.0004865740585879265
235	0x3f988077482bb163	0.023927558689068273
236	0x3fa0926090899b29	0.03236676945089407
237	0x3fa0e5b072dd18f3	0.033002389928286656
238	0x3fb97ed6bc43e31d	0.09959165664976095
239	0x3fbe3a27177ffd2a	0.11807483981828129
240	0x3fbe85259343db82	0.1192191586049898
241	0x3fc2b0694cfab45c	0.14600864657168955
242	0x3fc14db168436937	0.13518350211126925
243	0x3fbbfc5a0b338caa	0.10931933186980083
244	0x3fbd5126a472948e	0.11451951517899969
245	0x3fb78f22ce4377a7	0.09202783141833369
246	0x3fa94484b3c5aaa1	0.04935087866291111
247	0x3f94ae434e1c6bb5	0.020196010248678415
248	0xbf729f9570bd55b0	-0.004546722175140003
249	0xbf918144feddc858	-0.017094686561400202
250	0x3f5e272f641ba114	0.0018403971484364833
251	0x3f79a40427f6cb8b	0.006259933695605189
252	0x3f878150946fc64d	0.011477117090154776
253	0x3f901872099feeb2	0.015718252026984465
254	0x3f72064ac08d6b63	0.004400531769387014
255	0xbf84723caedf8ab9	-0.00998351486845671

b f8 [10, 1]
0	0xbfb4b4d0976b80e9	-0.08088401505256439
1	0x3fc5889df88f94b1	0.16823172222863073
2	0xbfa3d1f69621ef96	-0.03871126730606915
3	0xbfadfb46a079a476	-0.05855770787167895
4	0x3fa97d995a08fdd4	0.0497863695531994
5	0x3fc4b1cdcad13818	0.1616761436766303
6	0xbf92aef9fe7602c3	-0.018245607524934437
7	0x3fbae686df08f62f	0.10508006043615901
8	0xbfcff95c125af309	-0.24979735275510276
9	0xbfa3c08a7784ba3f	-0.03857834538427029
